assets/models/tumabot.tflite (tflite, 2312 bytes, 2 tensors)

arith.constant f4 [1, 10]
00000000: 40c3 e7bd 1ddc 2b3f fe58 f9be 02aa 8cbe
00000010: 5139 31bf 4ca3 643e 9883 9fbe a2d6 9b3e
00000020: 4094 c6bd 0934 0d3f
-0.11316538 0.6713274 -0.48700708 -0.27473456 -0.6922808 0.22327918 -0.31155086 0.3043719
-0.09696245 0.55157524

sequential_1/dense_1/MatMul f4 [10, 20]
00000000: 5a80 c7be 6a4b 39be 1c3d 853e 5047 3bbe
00000010: 18d9 3fbd 3c86 b73e 89ba b3be 465d 843e
00000020: b441 05be a83d a03e f039 e9bc d869 24be
00000030: 2878 c03d 0a45 c0be 5a37 c4be c23f bfbe
00000040: bf89 d0be 95ec 94be 1021 28be c0d9 343c
00000050: bc34 533e 4ca2 7a3e 4429 cfbd 2c6d c33e
00000060: 1b79 ccbe 43d4 b2be 9421 6d3e b096 bbbe
00000070: ca67 e1be fa06 893e 7e55 c93e c057 033e
00000080: 407d a83e fc42 2fbe 6056 1dbe 3caa 9fbe
00000090: bc3e 423e 72c9 c2be 184e 333e 00d8 88b9
000000a0: 6821 83be db99 d5be ee38 96be 18a9 063e
000000b0: 005f 1e3c 1429 b4bd 5012 0bbe 98c9 1c3e
000000c0: c4aa bbbd e042 b8be dc4a 023e e0fa 31be
000000d0: f810 3f3d c0fa 24bd 53dc b8be 5cdd b8be
000000e0: f972 a6be 60bb 093e 200e ac3d 100c d13c
000000f0: 89ab 99be 1004 813d 9402 edbd 54dd ce3e
00000100: b04f 89bc 0b1f c8be 90da 5b3e 8ef5 d13e
00000110: d849 0d3d c814 81bd d868 803e 91ff 4ebe
00000120: c83d 593e 84c2 663e 84f5 a43e d44c 13be
00000130: 4774 b8be c206 bc3e 509b 3c3d 2812 a5bd
00000140: 8851 bf3d ce45 893e 44c8 643e 7099 eebd
00000150: 26d5 be3e 38df ab3e acc7 603e 407a 86be
00000160: 96cb c43e 789d b3be 2c6e a5bd c881 49be
00000170: 34e1 b73e 1735 80be 80e3 653b fc2d 193e
00000180: 20d0 6b3e c4a2 9b3e ce4e b5be d71b a1be
00000190: 98ab a63d c02e cbbc 6c20 87bd d4d9 b23e
000001a0: 4089 67bc c8b0 1bbd 3041 003d 9099 343e
000001b0: 528e d3be b05e a9bc 84c2 d2be 0c08 8fbe
000001c0: b08e a03e dae8 9dbe ecd8 763e fc8d b23e
000001d0: a85f dbbe f053 ec3d b672 82be c031 e43c
000001e0: a4be c1be 003d 6e3e 08de c23e cdee a9be
000001f0: 1458 d13e b85b e13d c677 67be 3c18 81be
00000200: 5c29 b6bd 14a7 a5bd 32a9 a53e 8897 883d
00000210: b813 e53d 1023 6fbd 8005 bb3e 60aa cb3c
00000220: f6e8 9b3e ccc4 c6bd d27d 833e 5e8f e23e
00000230: e211 b53e 5073 45bd ce61 833e a24e 96be
00000240: c453 183e b8eb 963e 3e79 cabe 04e4 c3be
00000250: b43e 1a3e bc1e 7a3e 1a2e e43e c8f4 433e
00000260: 3475 e23e 986a 453d 0f47 cabe 0051 463c
00000270: a06b debd dc25 c7be 5859 4f3e 5066 b03c
00000280: 50f8 cc3e eccd 5c3e ae97 70be e8ae d93e
00000290: 963a 81be 28a4 d5bd 16f1 b53e e8a7 3d3e
000002a0: bf90 b1be 5990 e2be ee64 b6be f451 463e
000002b0: 92e6 d13e e184 cebe e202 c83e 34e9 1cbe
000002c0: 60cb aabc af06 c8be acff 283e 34ef 56be
000002d0: d071 c7bd d660 9b3e b855 9dbe b882 a4be
000002e0: e800 223e 7652 c3be 8040 4fbc 806c e5bb
000002f0: e0b8 95be 2cea d53e 00a6 c0be 13b1 c9be
00000300: a4d9 b13e b6a6 4ebe 2c09 89bd 08cd eebd
00000310: aafb d53e 441c 7a3e 78b7 debe cae5 bbbe
-0.38965112 -0.18095174 0.26023185 -0.18288922 -0.046837896 0.358446 -0.35103253 0.25852412
-0.13013345 0.3129704 -0.02847001 -0.16056001 0.09397918 -0.37552673 -0.3832348 -0.3735333
-0.40730092 -0.29086748 -0.16418862 0.011038244 0.20625585 0.24475974 -0.10115293 0.3816923
-0.39936146 -0.34927568 0.2315734 -0.36638403 -0.44024497 0.26763135 0.39323038 0.12826443
0.32908058 -0.17115396 -0.1536498 -0.31184566 0.18969244 -0.38044316 0.17510259 -0.00026100874
-0.25611424 -0.41718945 -0.2934031 0.13150442 0.009666204 -0.087968975 -0.13581204 0.15311277
-0.0916343 -0.35988522 0.12723869 -0.17380857 0.046647042 -0.040278196 -0.36105594 -0.36106384
-0.32509592 0.13450384 0.08401132 0.025518447 -0.30013683 0.06299603 -0.11572757 0.40403235
-0.01676163 -0.39086184 0.21470094 0.41007656 0.03449425 -0.06302792 0.2507999 -0.20214678
0.21214974 0.2253514 0.32218564 -0.14384776 -0.36026213 0.36723906 0.046046555 -0.08060104
0.09341723 0.2681107 0.2234202 -0.1165036 0.37271994 0.3356874 0.21951169 -0.26265144
0.38436574 -0.35081077 -0.08077654 -0.19678414 0.35914004 -0.25040504 0.0035078228 0.14958948
0.23028612 0.30397618 -0.35411686 -0.31466553 0.08138198 -0.024802566 -0.06597981 0.34931815
-0.014131844 -0.03801039 0.031312168 0.17636704 -0.4131952 -0.020675033 -0.4116403 -0.27935827
0.31358862 -0.30841714 0.24106187 0.3487395 -0.42846417 0.11539447 -0.25478142 0.027855754
-0.3784076 0.23265457 0.3806002 -0.33190003 0.4088751 0.11003822 -0.22604284 -0.25213802
-0.088946074 -0.08088508 0.32355648 0.06669527 0.11185402 -0.058383048 0.36527634 0.024861515
0.30451173 -0.09705505 0.2568193 0.44250005 0.35365206 -0.048205674 0.25660557 -0.29356867
0.14875704 0.29476714 -0.39545625 -0.382599 0.15062982 0.24425787 0.44566423 0.19136345
0.44230044 0.04819736 -0.39507338 0.012104273 -0.108603716 -0.38896072 0.20248926 0.021533161
0.40033197 0.21562928 -0.23495361 0.42516255 -0.2524001 -0.10431701 0.35535496 0.18521082
-0.34680745 -0.44250754 -0.35623878 0.193672 0.40996224 -0.40335754 0.390647 -0.15323335
-0.02084893 -0.390676 0.16503781 -0.20989686 -0.09738505 0.30347317 -0.3072946 -0.3213098
0.15820658 -0.3814885 -0.012649655 -0.0070014596 -0.2924261 0.4178022 -0.37626648 -0.3939291
0.3473636 -0.20180783 -0.066912025 -0.116602 0.41793567 0.24424845 -0.4349935 -0.36698753
