assets/TUMABOT.tflite (tflite, 2312 bytes, 2 tensors)

arith.constant f4 [1, 10]
000000 98 b1 19 be d8 a5 49 be 46 01 e8 3e 43 3a 1b 3f
       -0.15009153 -0.1969217 0.45313472 0.60635775
000010 bc 25 78 be 52 4e 17 bf fa 3b 3a bf 78 05 9b 3d
       -0.24233145 -0.5910388 -0.72747767 0.075694025
000020 7e 53 dc 3e 5a ee 04 bf
       0.4303245 -0.51926196

sequential_1/dense_1/MatMul f4 [10, 20]
000000 10 84 08 bd d8 c0 f9 3d 14 34 3d 3e dc 0c c0 be
       -0.03332907 0.12194985 0.18476897 -0.3750981
000010 d0 b0 ee bc 10 63 e2 3e b0 3b 82 3e 80 1a a8 bb
       -0.029137045 0.44216204 0.25436163 -0.005130112
000020 f4 7c de 3e 44 a8 8d bd 78 74 71 3e a0 f6 12 3e
       0.43454707 -0.0691686 0.23579586 0.14351892
000030 40 42 02 3e c0 84 b7 3e 6b 1f c8 be 58 c4 e0 be
       0.12720585 0.35843468 -0.3908647 -0.43899798
000040 8c 28 95 bd 18 47 b0 bd 40 ad ab 3c b8 a0 27 bd
       -0.07283124 -0.0860731 0.020956635 -0.040924758
000050 70 51 db bd 04 7c cc be ec ad 03 3e 6e d4 67 be
       -0.10708892 -0.39938366 0.12859315 -0.22639629
000060 44 33 57 be b6 24 de 3e ca 48 8d 3e 82 bd a8 3e
       -0.2101565 0.43387383 0.27594596 0.32957083
000070 40 0b f2 bc 85 8b 6e be 99 32 4a be 16 90 a2 3e
       -0.02954638 -0.2329541 -0.19745864 0.31750554
000080 b0 0c 49 3d a8 fa 55 3e ec e8 da be 38 9d 17 bd
       0.049084365 0.20896399 -0.4275583 -0.03701517
000090 f6 34 90 3e 8e 88 c0 3e 44 df d0 bd c0 35 9a 3e
       0.28165406 0.37604183 -0.101988345 0.30119133
0000a0 88 ea 7f 3e 6c 79 9e bd 00 ef 17 3b 3a f2 94 3e
       0.2499181 -0.07738003 0.0023183227 0.29091054
0000b0 ee 62 2f be 30 f2 22 bd 76 b1 98 be 9c 0e e1 3e
       -0.17127582 -0.03978175 -0.29822892 0.4395646
0000c0 34 92 32 3e 78 00 d9 3d 24 bf a9 3e 5c 3b 81 bd
       0.17438585 0.105957925 0.3315364 -0.0631015
0000d0 58 01 72 3e 66 21 96 be dc 18 a7 be 88 d4 56 3d
       0.23633325 -0.29322356 -0.32636154 0.05244878
0000e0 b8 12 25 3e 78 40 88 3d 3c 44 1b 3e a0 30 4a 3d
       0.16120422 0.066529214 0.15162748 0.04936278
0000f0 78 9c 23 bd 48 8f 39 3e 50 e2 32 3e f2 13 b3 3e
       -0.039944142 0.18121064 0.17469144 0.34976155
000100 78 b3 3d 3d 28 2e 5a 3e 1a 2f d9 3e a4 91 b9 3e
       0.046313733 0.2130667 0.42418748 0.36243927
000110 20 27 5a 3d f0 bc bd bd 73 f0 de be 3c 8c 4c 3e
       0.05325997 -0.092645526 -0.43542823 0.1997537
000120 96 6d d0 3e f6 36 2d be 16 73 dc be 3a 55 3b be
       0.40708607 -0.16915497 -0.43056554 -0.1829423
000130 4f 65 7d be b4 ec 5b 3e 91 8a 91 be b0 52 42 bd
       -0.24745677 0.21477014 -0.2842603 -0.04744214
000140 72 c4 2a be b0 6e 67 be a3 9b a4 be f0 6c 5e 3d
       -0.166765 -0.22600818 -0.3214999 0.05430311
000150 fe c0 c0 3e d1 cd b0 be c0 a9 b2 be b0 71 2c 3d
       0.3764724 -0.34532025 -0.34895134 0.04210061
000160 a0 65 28 3c 2e 84 cf be 00 0f a4 3a 98 97 90 3d
       0.010278136 -0.40530533 0.0012516677 0.07060164
000170 e5 74 a3 be a2 ac 0f be 9b 47 54 be b1 8e c7 be
       -0.3192512 -0.14030698 -0.2073044 -0.38976052
000180 34 3c e3 3e d6 99 24 be b4 0f 24 be 58 fb 74 bd
       0.4438187 -0.16074309 -0.16021615 -0.059810013
000190 d0 fc 3d bd e7 2c a8 be 90 e9 29 3d 07 85 cb be
       -0.04638368 -0.32846758 0.04148251 -0.3974993
0001a0 70 43 11 3e f5 83 57 be 94 ba ab be b8 0e e4 3d
       0.14185882 -0.21046431 -0.33540785 0.1113562
0001b0 c4 db 84 3e 40 44 65 3c e0 2f da 3d 7e 1c da 3e
       0.25948918 0.013993323 0.10653663 0.42599863
0001c0 15 a8 7c be 08 cb b6 bd 08 9a 9b 3d 00 f1 8d bd
       -0.24673493 -0.08925444 0.075977385 -0.06930733
0001d0 e4 e8 a9 be 60 81 17 3e 22 70 87 be 82 9b 94 be
       -0.33185494 0.14795446 -0.26452738 -0.29024893
0001e0 de 32 db 3e 84 eb 28 be 8e 18 be be 80 fc 94 bd
       0.42812246 -0.16496092 -0.3712811 -0.07274723
0001f0 63 ac 6d be 88 1c d7 3d 8e ea ac be f8 33 8d 3e
       -0.23210292 0.10503489 -0.337727 0.27578712
000200 a8 95 a4 3e e3 94 e1 be 00 8e eb 3d c4 b1 87 3e
       0.3214543 -0.44058904 0.11501694 0.26502812
000210 e0 24 9e 3c 48 ec 9e 3e f4 bf 02 be 72 7e e2 be
       0.019304693 0.31039643 -0.12768537 -0.44237095
000220 3a 3f af 3e b4 9f 95 be a6 28 bb 3e 02 11 b8 be
       0.34227926 -0.29223406 0.3655445 -0.35950476
000230 ab b3 66 be 48 2b 1e be e0 cd c0 3e 90 a7 06 bd
       -0.22529475 -0.15446198 0.3765707 -0.032874644
000240 d0 db 98 3d b0 1d aa be ea 36 61 be ce 89 a4 be
       0.07463801 -0.33225775 -0.21993604 -0.32136387
000250 1c f3 63 3e 96 7f ba be b9 8e bb be 10 1c cd 3e
       0.22260708 -0.36425465 -0.36632326 0.40060472
000260 0c e2 88 3e d4 49 be 3e a8 b7 05 be f0 3f 81 3e
       0.2673496 0.371657 -0.1305834 0.25244093
000270 60 86 b9 3d bc 0d d4 3e f9 c7 c6 be dc 63 12 be
       0.09058833 0.41416728 -0.38824442 -0.14295906
000280 84 b9 3e 3e c3 06 a6 be 88 9b 1d 3e 00 8e 84 3d
       0.18625456 -0.32427034 0.15391362 0.06472397
000290 e0 80 72 3c e8 f0 b0 3e d4 ac f7 bd 18 2a 4d bd
       0.014801234 0.34558797 -0.12093511 -0.05008897
0002a0 6c 20 a8 be 80 98 52 bc e8 94 81 3e 68 84 8a bd
       -0.32837236 -0.012853742 0.2530892 -0.06763536
0002b0 3e cd af 3e 54 d4 5a 3e ae 5c 52 be 16 98 bb be
       0.34336275 0.21370059 -0.20543167 -0.3663947
0002c0 56 16 aa be 8a e4 31 be ec 3f 51 3e 47 1e 8d be
       -0.33220166 -0.17372337 0.2043454 -0.27562162
0002d0 30 5a 8c 3d b0 0e 81 bd 4c 73 34 3e dc d2 99 3e
       0.068531394 -0.063016295 0.17622107 0.30043685
0002e0 70 ac e3 bc 56 53 c8 3e 20 85 73 3e 48 9f 13 3e
       -0.027792186 0.3912608 0.23781252 0.1441623
0002f0 fa 80 3f be 10 9c bd 3d 28 b6 89 be a8 33 4b 3e
       -0.18701544 0.09258282 -0.26896787 0.19843924
000300 3a 4e b4 3e 14 9b 9e bd b4 71 98 bd d0 31 e9 3d
       0.35215932 -0.077444226 -0.07443562 0.11386454
000310 f0 5f 9f bc aa f9 e1 3e f6 95 95 3e 58 ff 3c 3e
       -0.019454926 0.4413579 0.29215974 0.18456781
